…
[04/01 09:09:28] fastreid.data.build INFO: Using training sampler NaiveIdentitySampler
[04/01 09:09:28] fastreid.engine.defaults INFO: Auto-scaling the num_classes=[81, 8]
[04/01 09:09:30] fastreid.modeling.backbones.group_vit INFO: Loading pretrained model from /home/arsen/group_reid/methods/UMSOT/checkpoints/vit_base_patch16_224_augreg2_in21k_ft_in1k.pth
[04/01 09:09:30] fastreid.modeling.backbones.group_vit INFO: The checkpoint state_dict contains keys that are not used by the model:
  [35mhead.{bias, weight}[0m
[04/01 09:09:30] fastreid.engine.defaults INFO: Model:
Baseline(
  (backbone): GVit(
    (p_vit): p_ViT(
      (patch_embed): PatchEmbed_overlap(
        (proj): Conv2d(3, 768, kernel_size=(16, 16), stride=(16, 16))
      )
      (pos_drop): Dropout(p=0.0, inplace=False)
      (blocks): ModuleList(
        (0): Block(
          (norm1): LayerNorm((768,), eps=1e-05, elementwise_affine=True)
          (attn): Attention(
            (qkv): Linear(in_features=768, out_features=2304, bias=True)
            (attn_drop): Dropout(p=0.0, inplace=False)
            (proj): Linear(in_features=768, out_features=768, bias=True)
            (proj_drop): Dropout(p=0.0, inplace=False)
          )
          (drop_path): Identity()
          (norm2): LayerNorm((768,), eps=1e-05, elementwise_affine=True)
          (mlp): Mlp(
            (fc1): Linear(in_features=768, out_features=3072, bias=True)
            (act): GELU(approximate='none')
            (fc2): Linear(in_features=3072, out_features=768, bias=True)
            (drop): Dropout(p=0.0, inplace=False)
          )
        )
        (1-11): 11 x Block(
          (norm1): LayerNorm((768,), eps=1e-05, elementwise_affine=True)
          (attn): Attention(
            (qkv): Linear(in_features=768, out_features=2304, bias=True)
            (attn_drop): Dropout(p=0.0, inplace=False)
            (proj): Linear(in_features=768, out_features=768, bias=True)
            (proj_drop): Dropout(p=0.0, inplace=False)
          )
          (drop_path): DropPath()
          (norm2): LayerNorm((768,), eps=1e-05, elementwise_affine=True)
          (mlp): Mlp(
            (fc1): Linear(in_features=768, out_features=3072, bias=True)
            (act): GELU(approximate='none')
            (fc2): Linear(in_features=3072, out_features=768, bias=True)
            (drop): Dropout(p=0.0, inplace=False)
          )
        )
      )
      (norm): LayerNorm((768,), eps=1e-05, elementwise_affine=True)
    )
    (g_vit): g_ViT(
      (blocks): ModuleList(
        (0): Block(
          (norm1): LayerNorm((768,), eps=1e-06, elementwise_affine=True)
          (attn): Attention(
            (qkv): Linear(in_features=768, out_features=2304, bias=True)
            (attn_drop): Dropout(p=0.0, inplace=False)
            (proj): Linear(in_features=768, out_features=768, bias=True)
            (proj_drop): Dropout(p=0.0, inplace=False)
          )
          (drop_path): Identity()
          (norm2): LayerNorm((768,), eps=1e-06, elementwise_affine=True)
          (mlp): Mlp(
            (fc1): Linear(in_features=768, out_features=3072, bias=True)
            (act): GELU(approximate='none')
            (fc2): Linear(in_features=3072, out_features=768, bias=True)
            (drop): Dropout(p=0.0, inplace=False)
          )
        )
        (1): Block(
          (norm1): LayerNorm((768,), eps=1e-06, elementwise_affine=True)
          (attn): Attention(
            (qkv): Linear(in_features=768, out_features=2304, bias=True)
            (attn_drop): Dropout(p=0.0, inplace=False)
            (proj): Linear(in_features=768, out_features=768, bias=True)
            (proj_drop): Dropout(p=0.0, inplace=False)
          )
          (drop_path): DropPath()
          (norm2): LayerNorm((768,), eps=1e-06, elementwise_affine=True)
          (mlp): Mlp(
            (fc1): Linear(in_features=768, out_features=3072, bias=True)
            (act): GELU(approximate='none')
            (fc2): Linear(in_features=3072, out_features=768, bias=True)
            (drop): Dropout(p=0.0, inplace=False)
          )
        )
      )
      (norm): LayerNorm((768,), eps=1e-06, elementwise_affine=True)
    )
  )
  (heads_g): EmbeddingHead(
    (pool_layer): Identity()
    (bottleneck): Sequential(
      (0): BatchNorm(768, eps=1e-05, momentum=0.1, affine=True, track_running_stats=True)
    )
    (cls_layer): Linear(num_classes=81, scale=1, margin=0.0)
  )
  (heads_p): EmbeddingHead(
    (pool_layer): Identity()
    (bottleneck): Sequential(
      (0): BatchNorm(768, eps=1e-05, momentum=0.1, affine=True, track_running_stats=True)
    )
    (cls_layer): Linear(num_classes=8, scale=1, margin=0.0)
  )
)
[04/01 09:09:30] fastreid.utils.checkpoint INFO: No checkpoint found. Training model from scratch
[04/01 09:09:30] fastreid.engine.train_loop INFO: Starting training from epoch 0
[04/01 09:09:31] fastreid.engine.train_loop ERROR: Exception during training:
Traceback (most recent call last):
  File "/home/arsen/group_reid/methods/SIM/fastreid/engine/train_loop.py", line 140, in train
…
